{"format": "torch", "nodes": [{"name": "transforms.0", "id": 140093998838224, "class_name": "AffineCoupling(\n  (nn): MLPR(\n    (nonlin): ReLU()\n    (in_layer): Linear(in_features=2, out_features=64, bias=True)\n    (out_layer): Linear(in_features=64, out_features=4, bias=True)\n    (layers): ModuleList(\n      (0): Linear(in_features=64, out_features=64, bias=True)\n      (1): Linear(in_features=64, out_features=64, bias=True)\n      (2): Linear(in_features=64, out_features=64, bias=True)\n      (3): Linear(in_features=64, out_features=64, bias=True)\n      (4): Linear(in_features=64, out_features=64, bias=True)\n      (5): Linear(in_features=64, out_features=64, bias=True)\n      (6): Linear(in_features=64, out_features=64, bias=True)\n      (7): Linear(in_features=64, out_features=64, bias=True)\n      (8): Linear(in_features=64, out_features=64, bias=True)\n    )\n  )\n)", "parameters": [["nn.in_layer.weight", [64, 2]], ["nn.in_layer.bias", [64]], ["nn.out_layer.weight", [4, 64]], ["nn.out_layer.bias", [4]], ["nn.layers.0.weight", [64, 64]], ["nn.layers.0.bias", [64]], ["nn.layers.1.weight", [64, 64]], ["nn.layers.1.bias", [64]], ["nn.layers.2.weight", [64, 64]], ["nn.layers.2.bias", [64]], ["nn.layers.3.w
…
