{"format": "torch", "nodes": [{"name": "modules.0", "id": 139832555066512, "class_name": "AffineCoupling(\n  (nn): MLP(\n    (non_linearity): LeakyReLU(negative_slope=0.2)\n    (in_layer): Linear(in_features=2, out_features=100, bias=True)\n    (out_layer): Linear(in_features=100, out_features=4, bias=True)\n    (layers): ModuleList(\n      (0): Linear(in_features=100, out_features=100, bias=True)\n      (1): Linear(in_features=100, out_features=100, bias=True)\n      (2): Linear(in_features=100, out_features=100, bias=True)\n    )\n  )\n)", "parameters": [["nn.in_layer.weight", [100, 2]], ["nn.in_layer.bias", [100]], ["nn.out_layer.weight", [4, 100]], ["nn.out_layer.bias", [4]], ["nn.layers.0.weight", [100, 100]], ["nn.layers.0.bias", [100]], ["nn.layers.1.weight", [100, 100]], ["nn.layers.1.bias", [100]], ["nn.layers.2.weight", [100, 100]], ["nn.layers.2.bias", [100]]], "output_shape": [[256, 4], [256]], "num_parameters": [200, 100, 400, 4, 10000, 100, 10000, 100, 10000, 100]}, {"name": "modules.1", "id": 139832555066960, "class_name": "FullCombiner()", "parameters": [["w", [4, 4]]], "output_shape": [[256, 4], []], "num_parameters": [16]}, {"name": "modules.2", "id": 139832555068304, "class_name": "AffineCoupling(\n  (nn): MLP(\n    (non_linearity): LeakyReLU(negative_slope=0.2)\n    (in_layer): Linear(in_features=2, out_features=100, bias=True)\n    (out_layer): Linear(in_features=100, out_features=4, bias=True)\n    (layers): ModuleList(\n      (0): Linear(in_features=100, out_features=100, bias=True)\n      (1): Linear(in_features=100, out_features=100, bias=True)\n      (2): Linear(in_features=100, out_features=100, bias=True)\n    )\n  )\n)", "parameters": [["nn.in_layer.weight", [100, 2]], ["nn.in_layer.bias", [100]], ["nn.out_layer.weight", [4, 100]], ["nn.out_layer.bias", [4]], ["nn.layers.0.weight", [100, 100]], ["nn.layers.0.bias", [100]], ["nn.layers.1.weight", [100, 100]], ["nn.layers.1.bias", [100]], ["nn.layers.2.weight", [100, 100]], ["nn.layers.2.bias", [100]]], "output_shape": [[256, 4], [256]], "num_parameters": [200, 100, 400, 4, 10000, 100, 10000, 100, 10000, 100]}, {"name": "modules.3", "id": 139832555067024, "class_name": "FullCombiner()", "parameters": [["w", [4, 4]]], "output_shape": [[256, 4], []], "num_parameters": [16]}, {"name": "modules.4", "id": 139832554516752, "class_name": "AffineCoupling(\n  (nn): MLP(\n    (non_linearity): LeakyReLU(negative_slope=0.2)\n    (in_layer): Linear(in_features=2, out_features=100, bias=True)\n    (out_layer): Linear(in_features=100, out_features=4, bias=True)\n    (layers): ModuleList(\n      (0): Linear(in_features=100, out_features=100, bias=True)\n      (1): Linear(in_features=100, out_features=100, bias=True)\n      (2): Linear(in_features=100, out_features=100, bias=True)\n    )\n  )\n)", "parameters": [["nn.in_layer.weight", [100, 2]], ["nn.in_layer.bias", [100]], ["nn.out_layer.weight", [4, 100]], ["nn.out_layer.bias", [4]], ["nn.layers.0.weight", [100, 100]], ["nn.layers.0.bias", [100]], ["nn.layers.1.weight", [100, 100]], ["nn.layers.1.bias", [100]], ["nn.layers.2.weight", [100, 100]], ["nn.layers.2.bias", [100]]], "output_shape": [[256, 4], [256]], "num_parameters": [200, 100, 400, 4, 10000, 100, 10000, 100, 10000, 100]}, {"name": "modules.5", "id": 139832554516880, "class_name": "FullCombiner()", "parameters": [["w", [4, 4]]], "output_shape": [[256, 4], []], "num_parameters": [16]}, {"name": "modules.6", "id": 139832554518160, "class_name": "AffineCoupling(\n  (nn): MLP(\n    (non_linearity): LeakyReLU(negative_slope=0.2)\n    (in_layer): Linear(in_features=2, out_features=100, bias=True)\n    (out_layer): Linear(in_features=100, out_features=4, bias=True)\n    (layers): ModuleList(\n      (0): Linear(in_features=100, out_features=100, bias=True)\n      (1): Linear(in_features=100, out_features=100, bias=True)\n      (2): Linear(in_features=100, out_features=100, bias=True)\n    )\n  )\n)", "parameters": [["nn.in_layer.weight", [100, 2]], ["nn.in_layer.bias", [100]], ["nn.out_layer.weight", [4, 100]], ["nn.out_layer.bias", [4]], ["nn.layers.0.weight", [100, 100]], ["nn.layers.0.bias", [100]], ["nn.layers.1.weight", [100, 100]], ["nn.layers.1.bias", [100]], ["nn.layers.2.weight", [100, 100]], ["nn.layers.2.bias", [100]]], "output_shape": [[256, 4], [256]], "num_parameters": [200, 100, 400, 4, 10000, 100, 10000, 100, 10000, 100]}, {"name": "modules.7", "id": 139832554518032, "class_name": "FullCombiner()", "parameters": [["w", [4, 4]]], "output_shape": [[256, 4], []], "num_parameters": [16]}, {"name": "modules.8", "id": 139832554519504, "class_name": "AffineCoupling(\n  (nn): MLP(\n    (non_linearity): LeakyReLU(negative_slope=0.2)\n    (in_layer): Linear(in_features=2, out_features=100, bias=True)\n    (out_layer): Linear(in_features=100, out_features=4, bias=True)\n    (layers): ModuleList(\n      (0): Linear(in_features=100, out_features=100, bias=True)\n      (1): Linear(in_features=100, out_features=100, bias=True)\n      (2): Linear(in_features=100, out_features=100, bias=True)\n    )\n  )\n)", "parameters": [["nn.in_layer.weight", [100, 2]], ["nn.in_layer.bias", [100]], ["nn.out_layer.weight", [4, 100]], ["nn.out_layer.bias", [4]], ["nn.layers.0.weight", [100, 100]], ["nn.layers.0.bias", [100]], ["nn.layers.1.weight", [100, 100]], ["nn.layers.1.bias", [100]], ["nn.layers.2.weight", [100, 100]], ["nn.layers.2.bias", [100]]], 
…
