{"format": "torch", "nodes": [{"name": "transforms.0", "id": 140182546985168, "class_name": "ActNormBijectionCloud()", "parameters": [["shift", [1, 4]], ["log_scale", [1, 4]]], "output_shape": [[256, 4], [256]], "num_parameters": [4, 4]}, {"name": "transforms.1", "id": 140182546935696, "class_name": "FullCombiner()", "parameters": [["w", [4, 4]]], "output_shape": [[256, 4], []], "num_parameters": [16]}, {"name": "transforms.2", "id": 140182546935376, "class_name": "AffineCoupling(\n  (nn): MLPR(\n    (nonlin): LeakyReLU(negative_slope=0.01)\n    (in_layer): Linear(in_features=2, out_features=40, bias=True)\n    (out_layer): Linear(in_features=40, out_features=4, bias=True)\n    (layers): ModuleList(\n      (0): Linear(in_features=40, out_features=40, bias=True)\n      (1): Linear(in_features=40, out_features=40, bias=True)\n      (2): Linear(in_features=40, out_features=40, bias=True)\n    )\n  )\n)", "parameters": [["nn.in_layer.weight", [40, 2]], ["nn.in_layer.bias", [40]], ["nn.out_layer.weight", [4, 40]], ["nn.out_layer.bias", [4]], ["nn.layers.0.weight", [40, 40]], ["nn.layers.0.bias", [40]], ["nn.layers.1.weight", [40, 40]], ["nn.layers.1.bias", [40]], ["nn.layers.2.weight", [40, 40]], ["nn.layers.2.bias", [40]]], "output_shape"
…
"num_parameters": [80, 40, 160, 4, 1600, 40, 1600, 40, 1600, 40]}, {"name": "transforms.9", "id": 140180628264848, "class_name": "ActNormBijectionCloud()", "parameters": [["shift", [1, 4]], ["log_scale", [1, 4]]], "output_shape": [[256, 4], [256]], "num_parameters": [4, 4]}, {"name": "transforms.10", "id": 140182547045904, "class_name": "FullCombiner()", "parameters": [["w", [4, 4]]], "output_shape": [[256, 4], []], "num_parameters": [16]}, {"name": "transforms.11", "id": 140182547046096, "class_name": "AffineCoupling(\n  (nn): MLPR(\n    (nonlin): LeakyReLU(negative_slope=0.01)\n    (in_layer): Linear(in_features=2, out_features=40, bias=True)\n    (out_layer): Linear(in_features=40, out_features=4, bias=True)\n    (layers): ModuleList(\n      (0): Linear(in_features=40, out_features=40, bias=True)\n      (1): Linear(in_features=40, out_features=40, bias=True)\n      (2): Linear(in_features=40, out_features=40, bias=True)\n    )\n  )\n)", "parameters": [["nn.in_layer.weight", [40, 2]], ["nn.in_layer.bias", [40]], ["nn.out_layer.weight", [4, 40]], ["nn.out_layer.bias", [4]], ["nn.layers.0.weight", [40, 40]], ["nn.layers.0.bias", [40]], ["nn.layers.1.weight", [40, 40]], ["nn.layers.1.bias", [40]], ["nn.layers.2.weight", [40, 40]], ["nn.layers.2.bias", [40]]], "output_shape": [[256, 4], [256]], "num_parameters": [80, 40, 160, 4, 1600, 40, 1600, 40, 1600, 40]}, {"name": "transforms.12", "id": 140182546551824, "class_name": "AffineCoupling(\n  (nn): MLPR(\n    (nonlin): LeakyReLU(negative_slope=0.01)\n    (in_layer): Linear(in_features=2, out_features=40, bias=True)\n    (out_layer): Linear(in_features=40, out_features=4, bias=True)\n    (layers): ModuleList(\n      (0): Linear(in_features=40, out_features=40, bias=True)\n      (1): Linear(in_features=40, out_features=40, bias=True)\n      (2): Linear(in_features=40, out_features=40, bias=True)\n    )\n  )\n)", "parameters": [["nn.in_layer.weight", [40, 2]], ["nn.in_layer.bias", [40]], ["nn.out_layer.weight", [4, 40]], ["nn.out_layer.bias", [4]], ["nn.layers.0.weight", [40, 40]], ["nn.layers.0.bias", [40]], ["nn.layers.1.weight", [40, 40]], ["nn.layers.1.bias", [40]], ["nn.layers.2.weight", [40, 40]], ["nn.layers.2.bias", [40]]], "output_shape"
…
