{"format": "torch", "nodes": [{"name": "transforms.0", "id": 139833043921936, "class_name": "AffineCoupling(\n  (nn): MLPR(\n    (nonlin): ReLU()\n    (in_layer): Linear(in_features=2, out_features=4, bias=True)\n    (out_layer): Linear(in_features=4, out_features=4, bias=True)\n    (layers): ModuleList(\n      (0): Linear(in_features=4, out_features=4, bias=True)\n      (1): Linear(in_features=4, out_features=4, bias=True)\n    )\n  )\n)", "parameters": [["nn.in_layer.weight", [4, 2]], ["nn.in_layer.bias", [4]], ["nn.out_layer.weight", [4, 4]], ["nn.out_layer.bias", [4]], ["nn.layers.0.weight", [4, 4]], ["nn.layers.0.bias", [4]], ["nn.layers.1.weight", [4, 4]], ["nn.layers.1.bias", [4]]], "output_shape": [[128, 4], [128]], "num_parameters": [8, 4, 16, 4, 16, 4, 16, 4]}, {"name": "transforms.1", "id": 139833043922768, "class_name": "FullCombiner()", "parameters": [["w", [4, 4]]], "output_shape": [[128, 4], []], "num_parameters": [16]}, {"name": "transforms.2", "id": 139831127738576, "class_name": "AffineCoupling(\n  (nn): MLPR(\n    (nonlin): ReLU()\n    (in_layer): Linear(in_features=2, out_features=4, bias=True)\n    (out_layer): Linear(in_features=4, out_features=4, bias=True)\n    (layers): ModuleList(\n      (0): Linear(in_features=4, out_features=4, bias=True)\n      (1): Linear(in_features=4, out_features=4, bias=True)\n    )\n  )\n)", "parameters": [["nn.in_layer.weight", [4, 2]], ["nn.in_layer.bias", [4]], ["nn.out_layer.weight", [4, 4]], ["nn.out_layer.bias", [4]], ["nn.layers.0.weight", [4, 4]], ["nn.layers.0.bias", [4]], ["nn.layers.1.weight", [4, 4]], ["nn.layers.1.bias", [4]]], "output_shape": [[128, 4], [128]], "num_parameters": [8, 4, 16, 4, 16, 4, 16, 4]}, {"name": "transforms.3", "id": 139830231636432, "class_name": "FullCombiner()", "parameters": [["w", [4, 4]]], "output_shape": [[128, 4], []], "num_parameters": [16]}, {"name": "transforms.4", "id": 139833044017360, "class_name": "AffineCoupling(\n  (nn): MLPR(\n    (nonlin): ReLU()\n    (in_layer): Linear(in_features=2, out_features=4, bias=True)\n    (out_layer): Linear(in_features=4, out_features=4, bias=True)\n    (layers): ModuleList(\n      (0): Linear(in_features=4, out_features=4, bias=True)\n      (1): Linear(in_features=4, out_features=4, bias=True)\n    )\n  )\n)", "parameters": [["nn.in_layer.weight", [4, 2]], ["nn.in_layer.bias", [4]], ["nn.out_layer.weight", [4, 4]], ["nn.out_layer.bias", [4]], ["nn.layers.0.weight", [4, 4]], ["nn.layers.0.bias", [4]], ["nn.layers.1.weight", [4, 4]], ["nn.layers.1.bias", [4]]], "output_shape": [[128, 4], [128]], "num_parameters": [8, 4, 16, 4, 16, 4, 16, 4]}, {"name": "transforms.5", "id": 139833044072272, "class_name": "FullCombiner()", "parameters": [["w", [4, 4]]], "output_shape": [[128, 4], []], "num_parameters": [16]}, {"name": "transforms.6", "id": 139833044072464, "class_name": "AffineCoupling(\n  (nn): MLPR(\n    (nonlin): ReLU()\n    (in_layer): Linear(in_features=2, out_features=4, bias=True)\n    (out_layer): Linear(in_features=4, out_features=4, bias=True)\n    (layers): ModuleList(\n      (0): Linear(in_features=4, out_features=4, bias=True)\n      (1): Linear(in_features=4, out_features=4, bias=True)\n    )\n  )\n)", "parameters": [["nn.in_layer.weight", [4, 2]], ["nn.in_layer.bias", [4]], ["nn.out_layer.weight", [4, 4]], ["nn.out_layer.bias", [4]], ["nn.layers.0.weight", [4, 4]], ["nn.layers.0.bias", [4]], ["nn.layers.1.weight", [4, 4]], ["nn.layers.1.bias", [4]]], "output_shape": [[128, 4], [128]], "num_parameters": [8, 4, 16, 4, 16, 4, 16, 4]}, {"name": "transforms.7", "id": 139833044072592, "class_name": "FullCombiner()", "parameters": [["w", [4, 4]]], "output_shape": [[128, 4], []], "num_parameters": [16]}, {"name": "transforms.8", "id": 139833044073680, "class_name": "AffineCoupling(\n  (nn): MLPR(\n    (nonlin): ReLU()\n    (in_layer): Linear(in_features=2, out_features=4, bias=True)\n    (out_layer): Linear(in_features=4, out_features=4, bias=True)\n    (layers): ModuleList(\n      (0): Linear(in_features=4, out_features=4, bias=True)\n      (1): Linear(in_features=4, out_features=4, bias=True)\n    )\n  )\n)", "parameters": [["nn.in_layer.weight", [4, 2]], ["nn.in_layer.bias", [4]], ["nn.out_layer.weight", [4, 4]], ["nn.out_layer.bias", [4]], ["nn.layers.0.weight", [4, 4]], ["nn.layers.0.bias", [4]], ["nn.layers.1.weight", [4, 4]], ["nn.layers.1.bias", [4]]], "output_shape": [[128, 4], [128]], "num_parameters": [8, 4, 16, 4, 16, 4, 16, 4]}], "ed
…
