{"format": "torch", "nodes": [{"name": "transforms.0", "id": 139839435876880, "class_name": "FullCombiner()", "parameters": [["w", [4, 4]]], "output_shape": [[256, 4], []], "num_parameters": [16]}, {"name": "transforms.1", "id": 139839435825552, "class_name": "AffineCoupling(\n  (nn): MLPR(\n    (nonlin): LeakyReLU(negative_slope=0.01)\n    (in_layer): Linear(in_features=2, out_features=40, bias=True)\n    (out_layer): Linear(in_features=40, out_features=4, bias=True)\n    (layers): ModuleList(\n      (0): Linear(in_features=40, out_features=40, bias=True)\n      (1): Linear(in_features=40, out_features=40, bias=True)\n      (2): Linear(in_features=40, out_features=40, bias=True)\n    )\n  )\n)", "parameters": [["nn.in_layer.weight", [40, 2]], ["nn.in_layer.bias", [40]], ["nn.out_layer.weight", [4, 40]], ["nn.out_layer.bias", [4]], ["nn.layers.0.weight", [40, 40]], ["nn.layers.0.bias", [40]], ["nn.layers.1.weight", [40, 40]], ["nn.layers.1.bias", [40]], ["nn.layers.2.weight", [40, 40]], ["nn.layers.2.bias", [40]]], "output_shape": [[256, 4], [256]], "num_parameters": [80, 40, 160, 4, 1600, 40, 1600, 40, 1600, 40]}, {"name": "transforms.2", "id": 139839435826448, "class_name": "FullCombiner()", "parameters": [["w", [4, 4]]], "output_shape": [[256, 4], []], "num_parameters": [16]}, {"name": "transforms.3", "id": 139839435825232, "class_name": "AffineCoupling(\n  (nn): MLPR(\n    (nonlin): LeakyReLU(negative_slope=0.01)\n    (in_layer): Linear(in_features=2, out_features=40, bias=True)\n    (out_layer): Linear(in_features=40, out_features=4, bias=True)\n    (layers): ModuleList(\n      (0): Linear(in_features=40, out_features=40, bias=True)\n      (1): Linear(in_features=40, out_features=40, bias=True)\n      (2): Linear(in_features=40, out_features=40, bias=True)\n    )\n  )\n)", "parameters": [["nn.in_layer.weight", [40, 2]], ["nn.in_layer.bias", [40]], ["nn.out_layer.weight", [4, 40]], ["nn.out_layer.bias", [4]], ["nn.layers.0.weight", [40, 40]], ["nn.layers.0.bias", [40]], ["nn.layers.1.weight", [40, 40]], ["nn.layers.1.bias", [40]], ["nn.layers.2.weight", [40, 40]], ["nn.layers.2.bias", [40]]], "output_shape": [[256, 4], [256]], "num_parameters": [80, 40, 160, 4, 1600, 40, 1600, 40, 1600, 40]}, {"name": "transforms.4", "id": 139839435826832, "class_name": "FullCombiner()", "parameters": [["w", [4, 4]]], "output_shape": [[256, 4], []], "num_parameters": [16]}, {"name": "transforms.5", "id": 139839435878160, "class_name": "AffineCoupling(\n  (nn): MLPR(\n    (nonlin): LeakyReLU(negative_slope=0.01)\n    (in_layer): Linear(in_features=2, out_features=40, bias=True)\n    (out_layer): Linear(in_features=40, out_features=4, bias=True)\n    (layers): ModuleList(\n      (0): Linear(in_features=40, out_features=40, bias=True)\n      (1): Linear(in_features=40, out_features=40, bias=True)\n      (2): Linear(in_features=40, out_features=40, bias=True)\n    )\n  )\n)", "parameters": [["nn.in_layer.weight", [40, 2]], ["nn.in_layer.bias", [40]], ["nn.out_layer.weight", [4, 40]], ["nn.out_layer.bias", [4]], ["nn.layers.0.weight", [40, 40]], ["nn.layers.0.bias", [40]], ["nn.layers.1.weight", [40, 40]], ["nn.layers.1.bias", [40]], ["nn.layers.2.weight", [40, 40]], ["nn.layers.2.bias", [40]]], "output_shape": [[256, 4], [256]], "num_parameters": [80, 40, 160, 4, 1600, 40, 1600, 40, 1600, 40]}, {"name": "transforms.6", "id": 139839435878288, "class_name": "FullCombiner()", "parameters": [["w", [4, 4]]], "output_shape": [[256, 4], []], "num_parameters": [16]}, {"name": "transforms.7", "id": 139839435568336, "class_name": "AffineCoupling(\n  (nn): MLPR(\n    (nonlin): LeakyReLU(negative_slope=0.01)\n    (in_layer): Linear(in_features=2, out_features=40, bias=True)\n    (out_layer): Linear(in_features=40, out_features=4, bias=True)\n    (layers): ModuleList(\n      (0): Linear(in_features=40, out_features=40, bias=True)\n      (1): Linear(in_features=40, out_features=40, bias=True)\n      (2): Linear(in_features=40, out_features=40, bias=True)\n    )\n  )\n)", "parameters": [["nn.in_layer.weight", [40, 2]], ["nn.in_layer.bias", [40]], ["nn.out_layer.weight", [4, 40]], ["nn.out_layer.bias", [4]], ["nn.layers.0.weight", [40, 40]], ["nn.layers.0.bias", [40]], ["nn.layers.1.weight", [40, 40]], ["nn.layers.1.bias", [40]], ["nn.layers.2.weight", [40, 40]], ["nn.layers.2.bias", [40]]], "output_shape"
…
