{"format": "torch", "nodes": [{"name": "transforms.0", "id": 140325571210448, "class_name": "ActNormBijectionCloud()", "parameters": [["shift", [1, 4]], ["log_scale", [1, 4]]], "output_shape": [[128, 4], [128]], "num_parameters": [4, 4]}, {"name": "transforms.1", "id": 140325571209296, "class_name": "AffineCoupling(\n  (nn): MLPR(\n    (nonlin): ReLU()\n    (in_layer): Linear(in_features=2, out_features=100, bias=True)\n    (out_layer): Linear(in_features=100, out_features=4, bias=True)\n    (layers): ModuleList(\n      (0): Linear(in_features=100, out_features=100, bias=True)\n      (1): Linear(in_features=100, out_features=100, bias=True)\n    )\n  )\n)", "parameters": [["nn.in_layer.weight", [100, 2]], ["nn.in_layer.bias", [100]], ["nn.out_layer.weight", [4, 100]], ["nn.out_layer.bias", [4]], ["nn.layers.0.weight", [100, 100]], ["nn.layers.0.bias", [100]], ["nn.layers.1.weight", [100, 100]], ["nn.layers.1.bias", [100]]], "output_shape": [[128, 4], [128]], "num_parameters": [200, 100, 400, 4, 10000, 100, 10000, 100]}, {"name": "transforms.2", "id": 140325571209488, "class_name": "ActNormBijectionCloud()", "parameters": [["shift", [1, 4]], ["log_scale", [1, 4]]], "output_shape": [[128, 4], [128]], "num_parameters": [4, 4]}, {"name": "transforms.3", "id": 140325571209040, "class_name": "AffineCoupling(\n  (nn): MLPR(\n    (nonlin): ReLU()\n    (in_layer): Linear(in_features=2, out_features=100, bias=True)\n    (out_layer): Linear(in_features=100, out_features=4, bias=True)\n    (layers): ModuleList(\n      (0): Linear(in_features=100, out_features=100, bias=True)\n      (1): Linear(in_features=100, out_features=100, bias=True)\n    )\n  )\n)", "parameters": [["nn.in_layer.weight", [100, 2]], ["nn.in_layer.bias", [100]], ["nn.out_layer.weight", [4, 100]], ["nn.out_layer.bias", [4]], ["nn.layers.0.weight", [100, 100]], ["nn.layers.0.bias", [100]], ["nn.layers.1.weight", [100, 100]], ["nn.layers.1.bias", [100]]], "output_shape": [[128, 4], [128]], "num_parameters": [200, 100, 400, 4, 10000, 100, 10000, 100]}, {"name": "transforms.4", "id": 140325571209552, "class_name": "ActNormBijectionCloud()", "parameters": [["shift", [1, 4]], ["log_scale", [1, 4]]], "output_shape": [[128, 4], [128]], "num_parameters": [4, 4]}, {"name": "transforms.5", "id": 140325571244176, "class_name": "AffineCoupling(\n  (nn): MLPR(\n    (nonlin): ReLU()\n    (in_layer): Linear(in_features=2, out_features=100, bias=True)\n    (out_layer): Linear(in_features=100, out_features=4, bias=True)\n    (layers): ModuleList(\n      (0): Linear(in_features=100, out_features=100, bias=True)\n      (1): Linear(in_features=100, out_features=100, bias=True)\n    )\n  )\n)", "parameters": [["nn.in_layer.weight", [100, 2]], ["nn.in_layer.bias", [100]], ["nn.out_layer.weight", [4, 100]], ["nn.out_layer.bias", [4]], ["nn.layers.0.weight", [100, 100]], ["nn.layers.0.bias", [100]], ["nn.layers.1.weight", [100, 100]], ["nn.layers.1.bias", [100]]], "output_shape": [[128, 4], [128]], "num_parameters": [200, 100, 400, 4, 10000, 100, 10000, 100]}, {"name": "transforms.6", "id": 140325571247568, "class_name": "ActNormBijectionCloud()", "parameters": [["shift", [1, 4]], ["log_scale", [1, 4]]], "output_shape": [[128, 4], [128]], "num_parameters": [4, 4]}, {"name": "transforms.7", "id": 140325570720912, "class_name": "AffineCoupling(\n  (nn): MLPR(\n    (nonlin): ReLU()\n    (in_layer): Linear(in_features=2, out_features=100, bias=True)\n    (out_layer): Linear(in_features=100, out_features=4, bias=True)\n    (layers): ModuleList(\n      (0): Linear(in_features=100, out_features=100, bias=True)\n      (1): Linear(in_features=100, out_features=100, bias=True)\n    )\n  )\n)", "parameters": [["nn.in_layer.weight", [100, 2]], ["nn.in_layer.bias", [100]], ["nn.out_layer.weight", [4, 100]], ["nn.out_layer.bias", [4]], ["nn.layers.0.weight", [100, 100]], ["nn.layers.0.bias", [100]], ["nn.layers.1.weight", [100, 100]], ["nn.layers.1.bias", [100]]], "output_shape": [[128, 4], [128]], "num_parameters": [200, 100, 400, 4, 10000, 100, 10000, 100]}, {"name": "transforms.8", "id": 140325570722000, "class_name": "AffineCoupling(\n  (nn): MLPR(\n    (nonlin): ReLU()\n    (in_layer): Linear(in_features=2, out_features=100, bias=True)\n    (out_layer): Linear(in_features=100, out_features=4, bias=True)\n    (layers): ModuleList(\n      (0): Linear(in_features=100, out_features=100, bias=True)\n      (1): Linear(in_features=100, out_features=100, bias=True)\n    )\n  )\n)", "parameters": [["nn.in_layer.weight", [100, 2]], ["nn.in_layer.bias", [100]], ["nn.out_layer.weight", [4, 100]], ["nn.out_layer.bias", [4]], ["nn.layers.0.weight", [100, 100]], ["nn.layers.0.bias", [100]], ["nn.layers.1.weight", [100, 100]], ["nn.layers.1.bias", [100]]], "output_shape": [[128, 4], [128]], "num_parameters": [200, 100, 4
…
