{"format": "torch", "nodes": [{"name": "transforms.0", "id": 140526538575504, "class_name": "AffineCoupling(\n  (nn): MLPR(\n    (nonlin): LeakyReLU(negative_slope=0.01)\n    (in_layer): Linear(in_features=2, out_features=150, bias=True)\n    (out_layer): Linear(in_features=150, out_features=4, bias=True)\n    (layers): ModuleList(\n      (0): Linear(in_features=150, out_features=150, bias=True)\n      (1): Linear(in_features=150, out_features=150, bias=True)\n      (2): Linear(in_features=150, out_features=150, bias=True)\n      (3): Linear(in_features=150, out_features=150, bias=True)\n      (4): Linear(in_features=150, out_features=150, bias=True)\n      (5): Linear(in_features=150, out_features=150, bias=True)\n      (6): Linear(in_features=150, out_features=150, bias=True)\n      (7): Linear(in_features=150, out_features=150, bias=True)\n      (8): Linear(in_features=150, out_features=150, bias=True)\n    )\n  )\n)", "parameters": [["nn.in_layer.weight", [150, 2]], ["nn.in_layer.bias", [150]], ["nn.out_layer.weight", [4, 150]], ["nn.out_layer.bias", [4]], ["nn.layers.0.weight", [150, 150]], ["nn.layers.0.bias", [150]], ["nn.layers.1.weight", [150, 150]], ["nn.layers.1.bias", [150]], ["nn.layers.2.weight", [150, 150]], ["nn.layers.2.bias", [150]], [
…
