{"format": "torch", "nodes": [{"name": "transforms.0", "id": 140356708879248, "class_name": "FullCombiner()", "parameters": [["w", [4, 4]]], "output_shape": [[256, 4], []], "num_parameters": [16]}, {"name": "transforms.1", "id": 140356708827536, "class_name": "AffineCoupling(\n  (nn): MLPR(\n    (nonlin): LeakyReLU(negative_slope=0.01)\n    (in_layer): Linear(in_features=2, out_features=50, bias=True)\n    (out_layer): Linear(in_features=50, out_features=4, bias=True)\n    (layers): ModuleList(\n      (0): Linear(in_features=50, out_features=50, bias=True)\n      (1): Linear(in_features=50, out_features=50, bias=True)\n      (2): Linear(in_features=50, out_features=50, bias=True)\n      (3): Linear(in_features=50, out_features=50, bias=True)\n      (4): Linear(in_features=50, out_features=50, bias=True)\n      (5): Linear(in_features=50, out_features=50, bias=True)\n      (6): Linear(in_features=50, out_features=50, bias=True)\n      (7): Linear(in_features=50, out_features=50, bias=True)\n      (8): Linear(in_features=50, out_features=50, bias=True)\n      (9): Linear(in_features=50, out_features=50, bias=True)\n      (10): Linear(in_features=50, out_features=50, bias=True)\n      (11): Linear(in_features=50, out_features=50, bias=True)\n      (12): Linear(in_features=50, out_features=50, bias=True)\n      (13): Linear(in_features=50, out_features=50, bias=True)\n    )\n  )\n)", "parameters": [["nn.in_layer.weight", [50, 2]], ["nn.in_layer.bias", [50]], ["nn.out_layer.weight", [4, 50]], ["nn.out_layer.bias", [4]], ["nn.layers.0.weight", [50, 50]], ["nn.layers.0.bias", [50]], ["nn.layers.1.weight", [50, 50]], ["nn.layers.1.bias", [50]], ["nn.layers.2.weight", [50, 50]], ["nn.layers.2.bias", [50]], ["nn.layers.3.w
…
