{"format": "torch", "nodes": [{"name": "transforms.0", "id": 140357038136720, "class_name": "FullCombiner()", "parameters": [["w", [4, 4]]], "output_shape": [[256, 4], []], "num_parameters": [16]}, {"name": "transforms.1", "id": 140357038064784, "class_name": "AffineCoupling(\n  (nn): MLPR(\n    (nonlin): LeakyReLU(negative_slope=0.01)\n    (in_layer): Linear(in_features=2, out_features=100, bias=True)\n    (out_layer): Linear(in_features=100, out_features=4, bias=True)\n    (layers): ModuleList(\n      (0): Linear(in_features=100, out_features=100, bias=True)\n      (1): Linear(in_features=100, out_features=100, bias=True)\n      (2): Linear(in_features=100, out_features=100, bias=True)\n    )\n  )\n)", "parameters": [["nn.in_layer.weight", [100, 2]], ["nn.in_layer.bias", [100]], ["nn.out_layer.weight", [4, 100]], ["nn.out_layer.bias", [4]], ["nn.layers.0.weight", [100, 100]], ["nn.layers.0.bias", [100]], ["nn.layers.1.weight", [100, 100]], ["nn.layers.1.bias", [100]], ["nn.layers.2.weight", [100, 100]], ["nn.layers.2.bias", [100]]], "output_shape": [[256, 4], [256]], "num_parameters": [200, 100, 400, 4, 10000, 100, 10000, 100, 10000, 100]}, {"name": "transforms.2", "id": 140354354658576, "class_name": "FullCombiner()", "parameters": [["w", [4, 4]]], "output_shape": [[256, 4], []], "num_parameters": [16]}, {"name": "transforms.3", "id": 140357038066448, "class_name": "AffineCoupling(\n  (nn): MLPR(\n    (nonlin): LeakyReLU(negative_slope=0.01)\n    (in_layer): Linear(in_features=2, out_features=100, bias=True)\n    (out_layer): Linear(in_features=100, out_features=4, bias=True)\n    (layers): ModuleList(\n      (0): Linear(in_features=100, out_features=100, bias=True)\n      (1): Linear(in_features=100, out_features=100, bias=True)\n      (2): Linear(in_features=100, out_features=100, bias=True)\n    )\n  )\n)", "parameters": [["nn.in_layer.weight", [100, 2]], ["nn.in_layer.bias", [100]], ["nn.out_layer.weight", [4, 100]], ["nn.out_layer.bias", [4]], ["nn.layers.0.weight", [100, 100]], ["nn.layers.0.bias", [100]], ["nn.layers.1.weight", [100, 100]], ["nn.layers.1.bias", [100]], ["nn.layers.2.weight", [100, 100]], ["nn.layers.2.bias", [100]]], "output_shape": [[256, 4], [256]], "num_parameters": [200, 100, 400, 4, 10000, 100, 10000, 100, 10000, 100]}, {"name": "transforms.4", "id": 140357038066896, "class_name": "FullCombiner()", "parameters": [["w", [4, 4]]], "output_shape": [[256, 4], []], "num_parameters": [16]}, {"name": "transforms.5", "id": 140357037609552, "class_name": "AffineCoupling(\n  (nn): MLPR(\n    (nonlin): LeakyReLU(negative_slope=0.01)\n    (in_layer): Linear(in_features=2, out_features=100, bias=True)\n    (out_layer): Linear(in_features=100, out_features=4, bias=True)\n    (layers): ModuleList(\n      (0): Linear(in_features=100, out_features=100, bias=True)\n      (1): Linear(in_features=100, out_features=100, bias=True)\n      (2): Linear(in_features=100, out_features=100, bias=True)\n    )\n  )\n)", "parameters": [["nn.in_layer.weight", [100, 2]], ["nn.in_layer.bias", [100]], ["nn.out_layer.weight", [4, 100]], ["nn.out_layer.bias", [4]], ["nn.layers.0.weight", [100, 100]], ["nn.layers.0.bias", [100]], ["nn.layers.1.weight", [100, 100]], ["nn.layers.1.bias", [100]], ["nn.layers.2.weight", [100, 100]], ["nn.layers.2.bias", [100]]], "output_shape": [[256, 4], [256]], "num_parameters": [200, 100, 400, 4, 10000, 100, 10000, 100, 10000, 100]}, {"name": "transforms.6", "id": 140357037609680, "class_name": "FullCombiner()", "parameters": [["w", [4, 4]]], "output_shape": [[256, 4], []], "num_parameters": [16]}, {"name": "transforms.7", "id": 140357037610960, "class_name": "AffineCoupling(\n  (nn): MLPR(\n    (nonlin): LeakyReLU(negative_slope=0.01)\n    (in_layer): Linear(in_features=2, out_features=100, bias=True)\n    (out_layer): Linear(in_features=100, out_features=4, bias=True)\n    (layers): ModuleList(\n      (0): Linear(in_features=100, out_features=100, bias=True)\n      (1): Linear(in_features=100, out_features=100, bias=True)\n      (2): Linear(in_features=100, out_features=100, bias=True)\n    )\n  )\n)", "parameters": [["nn.in_layer.weight", [100, 2]], ["nn.in_layer.bias", [100]], ["nn.out_layer.weight", [4, 100]], ["nn.out_layer.bias", [4]], ["nn.layers.0.weight", [100, 100]], ["nn.layers.0.bias", [100]], ["nn.layers.1.weight", [100, 100]], ["nn.layers.1.bias", [100]], ["nn.layers.2.weight", [100, 100]], ["nn.layers.2.bias", [100]]], 
…
