{"format": "torch", "nodes": [{"name": "transforms.0", "id": 139790812119632, "class_name": "AffineCoupling(\n  (nn): MLPR(\n    (nonlin): ReLU()\n    (in_layer): Linear(in_features=2, out_features=124, bias=True)\n    (out_layer): Linear(in_features=124, out_features=4, bias=True)\n    (layers): ModuleList(\n      (0): Linear(in_features=124, out_features=124, bias=True)\n      (1): Linear(in_features=124, out_features=124, bias=True)\n    )\n  )\n)", "parameters": [["nn.in_layer.weight", [124, 2]], ["nn.in_layer.bias", [124]], ["nn.out_layer.weight", [4, 124]], ["nn.out_layer.bias", [4]], ["nn.layers.0.weight", [124, 124]], ["nn.layers.0.bias", [124]], ["nn.layers.1.weight", [124, 124]], ["nn.layers.1.bias", [124]]], "output_shape": [[128, 4], [128]], "num_parameters": [248, 124, 496, 4, 15376, 124, 15376, 124]}, {"name": "transforms.1", "id": 139790812120336, "class_name": "FullCombiner()", "parameters": [["w", [4, 4]]], "output_shape": [[128, 4], []], "num_parameters": [16]}, {"name": "transforms.2", "id": 139790812058064, "class_name": "AffineCoupling(\n  (nn): MLPR(\n    (nonlin): ReLU()\n    (in_layer): Linear(in_features=2, out_features=124, bias=True)\n    (out_layer): Linear(in_features=124, out_features=4, bias=True)\n    (layers): ModuleList(\n      (0): Linear(in_features=124, out_features=124, bias=True)\n      (1): Linear(in_features=124, out_features=124, bias=True)\n    )\n  )\n)", "parameters": [["nn.in_layer.weight", [124, 2]], ["nn.in_layer.bias", [124]], ["nn.out_layer.weight", [4, 124]], ["nn.out_layer.bias", [4]], ["nn.layers.0.weight", [124, 124]], ["nn.layers.0.bias", [124]], ["nn.layers.1.weight", [124, 124]], ["nn.layers.1.bias", [124]]], "output_shape": [[128, 4], [128]], "num_parameters": [248, 124, 496, 4, 15376, 124, 15376, 124]}, {"name": "transforms.3", "id": 139790812058640, "class_name": "FullCombiner()", "parameters": [["w", [4, 4]]], "output_shape": [[128, 4], []], "num_parameters": [16]}, {"name": "transforms.4", "id": 139788758889552, "class_name": "AffineCoupling(\n  (nn): MLPR(\n    (nonlin): ReLU()\n    (in_layer): Linear(in_features=2, out_features=124, bias=True)\n    (out_layer): Linear(in_features=124, out_features=4, bias=True)\n    (layers): ModuleList(\n      (0): Linear(in_features=124, out_features=124, bias=True)\n      (1): Linear(in_features=124, out_features=124, bias=True)\n    )\n  )\n)", "parameters": [["nn.in_layer.weight", [124, 2]], ["nn.in_layer.bias", [124]], ["nn.out_layer.weight", [4, 124]], ["nn.out_layer.bias", [4]], ["nn.layers.0.weight", [124, 124]], ["nn.layers.0.bias", [124]], ["nn.layers.1.weight", [124, 124]], ["nn.layers.1.bias", [124]]], "output_shape": [[128, 4], [128]], "num_parameters": [248, 124, 496, 4, 15376, 124, 15376, 124]}, {"name": "transforms.5", "id": 139790812178064, "class_name": "FullCombiner()", "parameters": [["w", [4, 4]]], "output_shape": [[128, 4], []], "num_parameters": [16]}, {"name": "transforms.6", "id": 139790812178256, "class_name": "AffineCoupling(\n  (nn): MLPR(\n    (nonlin): ReLU()\n    (in_layer): Linear(in_features=2, out_features=124, bias=True)\n    (out_layer): Linear(in_features=124, out_features=4, bias=True)\n    (layers): ModuleList(\n      (0): Linear(in_features=124, out_features=124, bias=True)\n      (1): Linear(in_features=124, out_features=124, bias=True)\n    )\n  )\n)", "parameters": [["nn.in_layer.weight", [124, 2]], ["nn.in_layer.bias", [124]], ["nn.out_layer.weight", [4, 124]], ["nn.out_layer.bias", [4]], ["nn.layers.0.weight", [124, 124]], ["nn.layers.0.bias", [124]], ["nn.layers.1.weight", [124, 124]], ["nn.layers.1.bias", [124]]], "output_shape": [[128, 4], [128]], "num_parameters": [248, 124, 496, 4, 15376, 124, 15376, 124]}, {"name": "transforms.7", "id": 139790812178384, "class_name": "FullCombiner()", "parameters": [["w", [4, 4]]], "output_shape": [[128, 4], []], "num_parameters": [16]}, {"name": "transforms.8", "id": 139790812179472, "class_name": "AffineCoupling(\n  (nn): MLPR(\n    (nonlin): ReLU()\n    (in_layer): Linear(in_features=2, out_features=124, bias=True)\n    (out_layer): Linear(in_features=124, out_features=4, bias=True)\n    (layers): ModuleList(\n      (0): Linear(in_features=124, out_features=124, bias=True)\n      (1): Linear(in_features=124, out_features=124, bias=True)\n    )\n  )\n)", "parameters": [["nn.in_layer.weight", [124, 2]], ["nn.in_layer.bias", [124]], ["nn.out_layer.weight", [4, 124]], ["nn.out_layer.bias", [4]], ["nn.layers.0.weight", [124, 124]], ["nn.layers.0.bias", [124]], ["nn.layers.1.weight", [124, 124]], ["nn.layers.1.bias", [124]]], "output_shape": [[128, 4], [128]], "num_parameters": [248, 124, 4
…
