{"format": "torch", "nodes": [{"name": "transforms.0", "id": 139816249969424, "class_name": "ActNormBijectionCloud()", "parameters": [["shift", [1, 4]], ["log_scale", [1, 4]]], "output_shape": [[256, 4], [256]], "num_parameters": [4, 4]}, {"name": "transforms.1", "id": 139816249969744, "class_name": "FullCombiner()", "parameters": [["w", [4, 4]]], "output_shape": [[256, 4], []], "num_parameters": [16]}, {"name": "transforms.2", "id": 139816249966992, "class_name": "AffineCoupling(\n  (nn): MLPR(\n    (nonlin): LeakyReLU(negative_slope=0.01)\n    (in_layer): Linear(in_features=2, out_features=100, bias=True)\n    (out_layer): Linear(in_features=100, out_features=4, bias=True)\n    (layers): ModuleList(\n      (0): Linear(in_features=100, out_features=100, bias=True)\n      (1): Linear(in_features=100, out_features=100, bias=True)\n      (2): Linear(in_features=100, out_features=100, bias=True)\n    )\n  )\n)", "parameters": [["nn.in_layer.weight", [100, 2]], ["nn.in_layer.bias", [100]], ["nn.out_layer.weight", [4, 100]], ["nn.out_layer.bias", [4]], ["nn.layers.0.weight", [100, 100]], ["nn.layers.0.bias", [100]], ["nn.layers.1.weight", [100, 100]], ["nn.layers.1.bias", [100]], ["nn.layers.2.weight", [100, 100]], ["nn.layers.2.bias", [100]]], "output_shape": [[256, 4], [256]], "num_parameters": [200, 100, 400, 4, 10000, 100, 10000, 100, 10000, 100]}, {"name": "transforms.3", "id": 139816249969808, "class_name": "FullCombiner()", "parameters": [["w", [4, 4]]], "output_shape": [[256, 4], []], "num_parameters": [16]}, {"name": "transforms.4", "id": 139816250028752, "class_name": "AffineCoupling(\n  (nn): MLPR(\n    (nonlin): LeakyReLU(negative_slope=0.01)\n    (in_layer): Linear(in_features=2, out_features=100, bias=True)\n    (out_layer): Linear(in_features=100, out_features=4, bias=True)\n    (layers): ModuleList(\n      (0): Linear(in_features=100, out_features=100, bias=True)\n      (1): Linear(in_features=100, out_features=100, bias=True)\n      (2): Linear(in_features=100, out_features=100, bias=True)\n    )\n  )\n)", "parameters": [["nn.in_layer.weight", [100, 2]], ["nn.in_layer.bias", [100]], ["nn.out_layer.weight", [4, 100]], ["nn.out_layer.bias", [4]], ["nn.layers.0.weight", [100, 100]], ["nn.layers.0.bias", [100]], ["nn.layers.1.weight", [100, 100]], ["nn.layers.1.bias", [100]], ["nn.layers.2.weight", [100, 100]], ["nn.layers.2.bias", [100]]], "output_shape": [[256, 4], [256]], "num_parameters": [200, 100, 400, 4, 10000, 100, 10000, 100, 10000, 100]}, {"name": "transforms.5", "id": 139816250070480, "class_name": "FullCombiner()", "parameters": [["w", [4, 4]]], "output_shape": [[256, 4], []], "num_parameters": [16]}, {"name": "transforms.6", "id": 139816250070672, "class_name": "AffineCoupling(\n  (nn): MLPR(\n    (nonlin): LeakyReLU(negative_slope=0.01)\n    (in_layer): Linear(in_features=2, out_features=100, bias=True)\n    (out_layer): Linear(in_features=100, out_features=4, bias=True)\n    (layers): ModuleList(\n      (0): Linear(in_features=100, out_features=100, bias=True)\n      (1): Linear(in_features=100, out_features=100, bias=True)\n      (2): Linear(in_features=100, out_features=100, bias=True)\n    )\n  )\n)", "parameters": [["nn.in_layer.weight", [100, 2]], ["nn.in_layer.bias", [100]], ["nn.out_layer.weight", [4, 100]], ["nn.out_layer.bias", [4]], ["nn.layers.0.weight", [100, 100]], ["nn.layers.0.bias", [100]], ["nn.layers.1.weight", [100, 100]], ["nn.layers.1.bias", [100]], ["nn.layers.2.weight", [100, 100]], ["nn.layers.2.bias", [100]]], "output_shape": [[256, 4], [256]], "num_parameters": [200, 100, 400, 4, 10000, 100, 10000, 100, 10000, 100]}, {"name": "transforms.7", "id": 139816250070800, "class_name": "FullCombiner()", "parameters": [["w", [4, 4]]], "output_shape": [[256, 4], []], "num_parameters": [16]}, {"name": "transforms.8", "id": 139816250072080, "class_name": "AffineCoupling(\n  (nn): MLPR(\n    (nonlin): LeakyReLU(negative_slope=0.01)\n    (in_layer): Linear(in_features=2, out_features=100, bias=True)\n    (out_layer): Linear(in_features=100, out_features=4, bias=True)\n    (layers): ModuleList(\n      (0): Linear(in_features=100, out_features=100, bias=True)\n      (1): Linear(in_features=100, out_features=100, bias=True)\n      (2): Linear(in_features=100, out_features=100, bias=True)\n    )\n  )\n)", "parameters": [["nn.in_layer.weight", [100, 2]], ["nn.in_layer.bias", [100]], ["nn.out_layer.weight", [4, 100]], ["nn.out_layer.bias", [4]], ["nn.layers.0.weight", [100, 100]], ["nn.layers.0.bias", [100]], ["nn.layers.1.weight", [100, 100]], ["nn.layers.1.bias", [100]], ["nn.layers.2.weight", [100, 100]], ["nn.layers.2.bias", [100]]], "output_shape": [[256, 4], [256]], "num_parameters": [200, 100, 400, 4, 10000, 100, 10000, 100, 10000, 100]}, {"name": "transforms.9", "id": 139816250028688, "class_name": "FullCombiner()", "parameters": [["w", [4, 4]]], "output_shape": [[256, 4], []], "num_parameters": [16]}, {"name": "transforms.10", "id": 139816249598352, "class_name": "AffineCoupling(\n  (nn): MLPR(\n    (nonlin): LeakyReLU(negative_slope=0.01)\n    (in_layer): Linear(in_features=2, out_features=100, bias=True)\n    (out_layer): Linear(in_features=100, out_features=4, bias=True)\n    (layers): ModuleList(\n      (0): Linear(in_features=100, out_features=100, bias=True)\n      (1): Linear(in_features=100, out_features=100, bias=True)\n      (2): Linear(in_features=100, out_features=100, bias=True)\n    )\n  )\n)", "parameters": [["nn.in_layer.weight", [100, 2]], ["nn.in_layer.bias", [100]], ["nn.out_layer.weight", [4, 100]], ["nn.out_layer.bias", [4]], ["nn.layers.0.weight", [100, 100]], ["nn.layers.0.bias", [100]], ["nn.layers.1.weight", [100, 100]], ["nn.layers.1.bias", [100]], ["nn.layers.2.weight", [100, 100]], ["nn.layers.2.bias", [100]]], 
…
